python/final_signal_classifier_optimized.pth (torch, 17902 bytes, 14 tensors)

feature_layers.0.weight f4 [32, 64]
000000 3b ce 12 bf ed 86 cd 3d 57 25 f0 bd a7 05 27 be
       -0.5734593 0.10035501 -0.11725872 -0.1631075
000010 b7 e4 c3 bc e3 c8 a1 3e 69 11 87 3e ad 64 81 be
       -0.02391277 0.31598577 0.2638047 -0.25272122
000020 47 e0 48 3d dc 78 81 3d f5 f4 5c be 84 1a 03 be
       0.049042013 0.0632188 -0.21577819 -0.12803084
000030 6c ef e7 be e3 b0 03 3d 62 92 02 bf 59 17 23 3e
       -0.45299852 0.032151114 -0.5100461 0.15926875
000040 89 bd f4 be e1 14 05 3e e2 b4 d9 bd c7 51 a8 be
       -0.47800854 0.12996246 -0.10630204 -0.3287489
000050 9e fe f6 3e c5 17 c9 be a7 df 47 3c 07 2e 20 bf
       0.48241132 -0.39275947 0.012199319 -0.6257023
000060 f0 eb 11 bd 2c 95 01 bf 5d c4 6c bd 67 a1 c1 be
       -0.0356254 -0.50618243 -0.057804454 -0.37818453
000070 ef 13 4b be 52 6c 21 bf 64 35 ab 3d 0a cd 91 be
       -0.19831823 -0.6305591 0.08359793 -0.28476745
000080 f4 c7 c3 be ec 77 52 3e 2d d9 a4 be af aa 84 be
       -0.3823849 0.20553559 -0.32196942 -0.2591147
000090 ba 5e 9d 3c 88 e5 aa be dc d2 1d be 10 3b 3f bf
       0.019210208 -0.33378243 -0.15412468 -0.746995
0000a0 38 d6 6f bf b5 9b 3b bf 60 87 d2 be 63 c5 34 bf
       -0.93686247 -0.73284465 -0.41118908 -0.7061369
0000b0 62 4a 20 bf 73 e8 43 be de d7 96 be c0 93 6d 3e
       -0.626135 -0.19131641 -0.2946157 0.23200893
0000c0 a9 32 ff be 9c 08 f5 be 26 bd cd 3d dc 7f bc be
       -0.49843338 -0.4785813 0.10045843 -0.368163
0000d0 8c 2c f1 be f4 5a ea bd a0 55 97 bb 82 60 38 bd
       -0.471043 -0.11443129 -0.0046183616 -0.045013912
0000e0 7c 6b 4a 3d f0 0d b1 bd 07 ca 1c 3e 68 95 34 bd
       0.04941891 -0.086452365 0.15311442 -0.044087797
0000f0 ca 31 01 3c c0 b0 99 3e a3 a4 94 bd 27 9c 23 be
       0.007885406 0.30017662 -0.072579645 -0.15977536
000100 19 52 13 bf bb 1e f2 3c 98 2d 94 3c c2 0f 81 bc
       -0.57547146 0.029555669 0.018088147 -0.015754584
000110 28 1d 95 3e b9 f2 e7 be 89 47 b0 3c 13 ff 79 3e
       0.29123807 -0.4530237 0.021518486 0.2441371
000120 75 7c 1c bf e2 61 66 3e a1 15 5d 3d 54 f3 34 be
       -0.61127406 0.22498277 0.053975705 -0.17670947
000130 57 ad 8a 3e 49 22 df be 79 f6 c5 bd 60 a1 0e bd
       0.27085373 -0.43580845 -0.096661516 -0.034821868
000140 f1 29 00 3e 98 2e 88 bd bc de d0 be 64 2a c3 be
       0.12516 -0.06649512 -0.40794933 -0.3811828
000150 0d a2 d4 bd 98 61 32 3e b3 51 14 ba 7d 21 88 be
       -0.10382471 0.17420042 -0.0005657926 -0.2658805
000160 0d 54 3c bd 81 75 be bc 84 72 5d be 7d 7c fb 3d
       -0.045978595 -0.02324939 -0.21625715 0.12279604
000170 8a b1 d4 be df 6a 9e 3d 5e e8 5a 3e cc 3e 9a be
       -0.41541702 0.07735228 0.21377704 -0.30126035
000180 e0 23 ad be 37 42 74 3c a7 02 82 be ba 3e 6b 3e
       -0.33816433 0.014908365 -0.2539265 0.22973147
000190 de 36 2a bf 3f 88 e3 3e e3 8f d6 be 87 03 3d be
       -0.6648997 0.44439885 -0.41906652 -0.18458377
0001a0 d4 c7 73 be a9 3d da bd 22 6f 0f bc 80 41 42 be
       -0.23806697 -0.10656292 -0.0087545235 -0.18970299
0001b0 62 44 83 3e b0 8d bb be 6b bb a0 3d 96 d2 2a bf
       0.2563811 -0.36631536 0.07848247 -0.6672758
0001c0 83 cc 24 3f 09 1c e6 be 9e 57 96 3e 0b 8e 05 bf
       0.6437456 -0.44943264 0.29363722 -0.52169865
0001d0 15 7e da 3e 57 63 d8 be 99 7f a2 be 4b bc 98 3e
       0.42674318 -0.4226329 -0.31737974 0.29831156
0001e0 20 f9 8c be 97 5b 32 be 2c 6d 0b bd 50 c7 d6 3d
       -0.27533817 -0.17417751 -0.03403966 0.104872346
0001f0 6d dc bf be c6 38 01 3d e3 bd f3 3e 98 a1 4e bf
       -0.3747286 0.031548284 0.4760581 -0.8071532
000200 5e 71 b8 3d 0e 61 ff bd ab 10 64 be ba a9 01 bf
       0.09005998 -0.124696836 -0.22271983 -0.5064961
000210 c8 c4 ab be 51 92 04 bf 82 ff e9 be ec 5a 85 be
       -0.3354857 -0.5178576 -0.4570275 -0.2604593
000220 0a f8 75 3c 13 a4 10 be 08 8a 1a be 3a a8 5f 3d
       0.01501275 -0.1412509 -0.15091717 0.054603793
000230 b6 10 43 3e 00 a9 91 3b 6f 75 be bd 4a 15 79 be
       0.19049343 0.004445195 -0.092997424 -0.24324527
000240 4d cd 97 be 88 1a b3 be 63 65 82 3d d0 ab c5 bd
       -0.2964882 -0.3498118 0.06366994 -0.09651911
000250 b9 d9 20 3e 9a c9 14 3f 61 7f 6e 3f 8f a4 86 3f
       0.15708055 0.5812012 0.93163115 1.0518969
000260 8d 3e 99 3f ab fd 31 3f 9d 0f b0 3e 2b 29 4b 3d
       1.1972214 0.6952769 0.34386912 0.049599808
000270 70 b6 70 3d c2 78 4c 3e 4d 80 b7 bd e4 0a 4f 3e
       0.058767736 0.1996794 -0.08960018 0.20218998
000280 a8 93 2e be 83 91 ba bd 4f 99 e2 be 77 1e 13 be
       -0.17048514 -0.091097854 -0.4425759 -0.1436709
000290 af 20 a1 bd 95 35 49 be d4 51 c3 be 80 c5 c9 3b
       -0.07867562 -0.19649346 -0.38148367 0.006157577
0002a0 01 cd 2c be 2d ab 5f be 31 be 08 be 6b a5 d3 bc
       -0.16875078 -0.21842642 -0.13353802 -0.025835713
0002b0 21 e4 fa 3c df 4f da be 95 b9 ac be a9 05 5d bf
       0.030626358 -0.42639062 -0.33735338 -0.8633676
0002c0 69 3f 93 be da f4 55 bd 96 8f 8c 3e 9d 27 fa bc
       -0.28759316 -0.05223546 0.27453297 -0.030536467
0002d0 7d ac 14 3f 2d 8f 78 3f f8 e6 e1 3e 04 f7 f9 3d
       0.58075696 0.9709347 0.44121528 0.122053176
0002e0 ed fc 7c 3e 87 d5 1e 3e bd b3 f2 3c 53 70 cb bd
       0.24705859 0.15511142 0.029626722 -0.099335335
0002f0 7d c5 8e 3d 18 0c 5c bd 28 f1 02 be ac 41 b2 bd
       0.06971262 -0.05372247 -0.12787306 -0.08703932
000300 65 1e 84 3e c7 2a 54 be 05 6f df bd f6 af a0 bd
       0.2580444 -0.20719443 -0.10909847 -0.07846062
000310 75 1f dc be 09 f8 6a 3c a0 0a d5 bd 6d 07 30 bd
       -0.4299275 0.014341363 -0.10402417 -0.04297583
000320 bf 25 bc 3e 6d 36 20 3e 2d fa 70 3e f3 55 47 3e
       0.36747548 0.15645762 0.23532934 0.19466381
000330 b5 61 71 bd fe c8 74 3e 5d 3f 5a bd 1b 79 3d bd
       -0.05893107 0.23904797 -0.053283084 -0.046258073
000340 0f f1 9e 3c 3a e2 a9 bd 81 e6 53 3e 04 75 a5 be
       0.019402055 -0.082951024 0.20693399 -0.32315838
000350 bd 8e 9f 3d 32 d7 96 be a1 e5 36 be 49 d0 89 be
       0.07790897 -0.29461056 -0.17861034 -0.2691672
000360 04 92 75 be 7d e4 84 be 0c 41 6f bd da c3 55 bd
       -0.23981482 -0.25955573 -0.058411643 -0.05218873
000370 b9 cf ac 3c e9 06 ea be 10 87 93 be fe 8a d2 be
       0.021095144 -0.45708397 -0.28813982 -0.41121668
000380 73 e2 37 be 29 a9 36 be 1e 34 7f 3c 6b 34 93 3e
       -0.17957477 -0.17837967 0.015576391 0.2875093
000390 c6 df 22 be 33 75 2e 3e fe 69 11 3e 9b 38 0c 3f
       -0.15905675 0.17036895 0.14200589 0.54773873
0003a0 c8 5e bf 3f 87 5a 94 3f ba da a4 3f 36 50 36 3f
       1.49508 1.1590127 1.287925 0.7121614
0003b0 03 ce d4 3e b8 0d 3e 3e e8 a8 fb 3d 41 01 96 3e
       0.41563424 0.18559921 0.12288076 0.29297832
0003c0 6a 5d 1e 3e 04 ec c1 3c 9f a3 3c 3e 92 b7 b8 bd
       0.15465322 0.023672111 0.18421791 -0.09019388
0003d0 be fc 82 be 4b f8 6a be da 07 99 bd d9 8b d4 3d
       -0.25583452 -0.22946279 -0.07472201 0.10378236
0003e0 be 10 d9 bc 9a 46 36 3d 19 db 4a be 33 fc bd 3d
       -0.026497241 0.044500925 -0.19810142 0.09276619
0003f0 1e b5 11 3d a4 ba d4 be d5 1a f8 be 58 1b 36 bf
       0.035573117 -0.41548645 -0.4845797 -0.71135473

feature_layers.0.bias f4 [32]
000000 f2 17 12 bc 69 2b 7a bc 42 5b ef bc 98 fa 36 b9
       -0.008916842 -0.015269139 -0.02921832 -0.00017450226
000010 2f d2 35 bc df 65 9b 3c df d2 85 bc ac 29 13 3d
       -0.011097475 0.018969474 -0.016335903 0.035928413
000020 49 e0 df bc e3 bd 4b 3e 52 b2 e0 bc 1f 30 b2 bd
       -0.027328627 0.19896655 -0.02742878 -0.087005846
000030 88 90 45 bd 82 8e c6 3c 35 d1 81 bc af 33 24 3d
       -0.04823354 0.024237875 -0.015846828 0.04008835
000040 bd 1a d3 3c 12 93 97 3d 7e ec a9 bd 39 3d aa bd
       0.025769586 0.07401098 -0.082970604 -0.083124585
000050 68 a4 6d 3e 22 33 f6 3b cb d3 9a bd 6f 05 07 bc
       0.23207247 0.0075134197 -0.075599276 -0.008241042
000060 c5 75 e6 3d 8c c7 76 3d e3 e6 09 3d b1 35 87 be
       0.112529315 0.060248896 0.033667456 -0.2640815
000070 2d 62 dd 3d 8e 5c b4 3d 14 3e 54 3e 7d 45 85 bd
       0.10809741 0.08806716 0.20726806 -0.065073945

feature_layers.1.weight f4 [32]
000000 22 34 60 3f bc 6c a2 3f 42 8b 64 3f 09 b6 80 3f
       0.8757955 1.2689433 0.8927499 1.0055553
000010 60 17 47 3f 7d 15 5b 3f 65 40 84 3f 60 b2 69 3f
       0.7777004 0.85579664 1.0332152 0.91287804
000020 cb 49 98 3f ee dd 8d 3f 60 7f 58 3f d0 76 a1 3f
       1.189752 1.1083353 0.8456936 1.2614384
000030 75 dc 20 3f 1e ee 82 3f e6 d7 7a 3f a3 3b 48 3f
       0.6283639 1.0228918 0.97985685 0.78216
000040 7e 8e 9b 3f 5a de 89 3f 3b 0e 65 3f ee fe 94 3f
       1.215286 1.0770981 0.8947484 1.1640298
000050 09 b1 a9 3f dd 34 5b 3f 74 f6 a2 3f 33 e6 94 3f
       1.3257152 0.8562754 1.2731462 1.1632751
000060 fe 4f 7b 3f 03 9d 94 3f 51 db 51 3f 55 8f 9a 3f
       0.98168933 1.1610416 0.81975275 1.2074991
000070 a1 38 64 3f db 00 9f 3f 69 09 74 3f 95 5e a5 3f
       0.8914891 1.2422136 0.9532686 1.2919489

feature_layers.1.bias f4 [32]
000000 dd 82 0e be 94 fe 55 3e bc fc 3a be e8 74 33 be
       -0.13917108 0.20897895 -0.18260473 -0.17525065
000010 26 c1 f1 bd 89 fd e7 3e d0 14 18 be 2d 7d 77 be
       -0.11804418 0.4531062 -0.1485169 -0.24168845
000020 d2 62 f2 bd c7 21 68 be e0 ea 04 be f1 32 be 3e
       -0.11835255 -0.22669135 -0.12980223 0.3714824
000030 56 98 58 bd e4 0c 0a be 13 34 05 be 4a d9 f8 bd
       -0.052879654 -0.1348148 -0.13008146 -0.121508196
000040 a4 03 00 be cd 66 93 be ec 00 39 be 83 05 9c bd
       -0.12501389 -0.28789368 -0.18066758 -0.07618239
000050 64 06 0c be d3 c9 e7 bd 15 1c b7 be 8e b0 0f be
       -0.13674313 -0.11317792 -0.35763612 -0.14032194
000060 c3 61 30 be df 38 69 be 63 de b7 bd df 23 7f 3e
       -0.17224793 -0.22775601 -0.08977964 0.24916027
000070 8b a6 bc bd 16 4f e2 bd 78 9f 27 be b5 b6 e6 bd
       -0.09211453 -0.11050241 -0.16369426 -0.11265317

feature_layers.1.running_mean f4 [32]
000000 4a c2 dc c0 a3 7c 64 c0 25 63 a5 3e 69 31 9d 3f
       -6.898717 -3.5701072 0.32302204 1.2280704
000010 cc 08 df 3f be 68 db 40 ea 8c c2 bc 41 e9 7a bf
       1.742456 6.856536 -0.023748834 -0.9801217
000020 5b 16 1d be 1a 62 68 3e e3 6a 29 3f b6 91 c5 40
       -0.15340559 0.22693673 0.6617872 6.174037
000030 d1 ff fb 3f 3d 23 f8 bf 0d a7 22 c0 e4 22 a8 3e
       1.9687444 -1.9385754 -2.541446 0.3283912
000040 b4 89 17 be a6 ec 95 c0 56 6a 6b bd 39 49 f1 3c
       -0.14798623 -4.6851377 -0.057474457 0.02945386
000050 d7 87 5f 3d d6 c0 01 c0 c6 04 71 3e c5 50 de bf
       0.054572906 -2.0273948 0.23536977 -1.7368399
000060 77 ba ce 3d 39 e3 85 3d 3f de 1a c0 c8 68 f5 be
       0.10094159 0.0653748 -2.4198148 -0.47931504
000070 82 60 04 3d 74 61 63 3d ae 68 82 3e f8 67 21 be
       0.0323186 0.05551286 0.2547049 -0.15762317

feature_layers.1.running_var f4 [32]
000000 c3 17 04 40 fd 2b cb 3e a6 17 3d 40 1e b7 52 40
       2.0639503 0.39681998 2.9545684 3.2924266
000010 e9 43 79 40 70 ba b1 3f 43 06 1f 3d f2 80 d0 3f
       3.89477 1.3885021 0.03882433 1.6289351
000020 af ac 24 3e 41 e9 fd 3c 2a 74 41 40 ef a2 97 3f
       0.16081499 0.030995013 3.022715 1.1846598
000030 f2 ef 99 3e 32 40 0d 40 23 88 39 40 6d 9b 38 40
       0.30065876 2.2070432 2.8989341 2.8844864
000040 57 c6 55 3e fa 86 9b 3f 51 be 33 3d 7a d1 85 3f
       0.20876442 1.2150567 0.04388267 1.0454552
000050 0c 94 3c 3e fb 7a 3b 40 00 be 76 3f 5f 18 03 40
       0.1841585 2.9293811 0.96383667 2.0483625
000060 82 9a 08 3d 0e 5e 2a 3d 49 60 55 40 de 8c 43 3e
       0.033350475 0.041593604 3.3340018 0.19096705
000070 7a 72 0a 3e 14 c8 22 3e cf 71 0b 3d 45 14 2e 3e
       0.13520232 0.15896636 0.034044083 0.1699992

feature_layers.4.weight f4 [16, 32]
000000 4b a2 17 bf e8 ae 83 3d ff f9 7b 3e 12 a5 4c 3e
       -0.59232014 0.06429845 0.24607085 0.19984844
000010 62 b0 a9 3e 8a a1 cd bf 06 82 a1 be 04 ed c4 3e
       0.33142382 -1.6064923 -0.31544513 0.3846208
000020 a6 6c 0f 3e d2 c7 92 be 04 85 97 3e ff 3c 8a bf
       0.1400629 -0.28668076 0.2959367 -1.0799865
000030 8f 9a 22 3e 81 ab a2 3e d8 61 1b 3f ca ad 12 3e
       0.15879272 0.31771472 0.6069617 0.14324108
000040 e5 73 c4 3d bb 82 4f bf 09 05 e6 be ff 29 2a 3f
       0.09592418 -0.81058854 -0.44925717 0.6647033
000050 69 9a 9b 3d 9b f7 c6 3e b4 21 a8 3e 54 e7 9c bc
       0.07597811 0.38860783 0.32838213 -0.019153275
000060 db 5c d8 be 3a d1 de be 8e 9e f3 3d 83 96 da 3c
       -0.42258343 -0.43519002 0.11895476 0.026683098
000070 89 7c 10 3e 74 f6 af 3d 8a 1b cf be b6 a6 cf 3d
       0.14110006 0.08591929 -0.40450698 0.101392195
000080 b4 3d 85 bd 89 7f c4 3c d7 76 e0 be e0 78 31 bf
       -0.065059096 0.023986595 -0.43840668 -0.69325066
000090 b5 ab e8 be 81 ab 00 3d 5e 10 90 3e 0b 75 eb be
       -0.45443502 0.03141356 0.28137487 -0.45987734
0000a0 17 4a 56 bd 46 10 bc 3e 38 0c 8d be 67 9a 04 bd
       -0.05231675 0.36731166 -0.27548385 -0.032373812
0000b0 0b 20 11 bf ab a4 a8 be 14 44 9d be 94 49 b7 be
       -0.5668952 -0.32938132 -0.30716002 -0.35798323
0000c0 22 ea 5f 3c 71 13 28 bf b0 9d 9b 3e 50 53 61 3f
       0.013666661 -0.65654665 0.30393744 0.8801775
0000d0 92 28 82 bc 21 7f c0 be 85 e2 8d 3f 60 23 05 3e
       -0.015888486 -0.37596992 1.1084753 0.13001776
0000e0 64 c9 c1 3e bf f1 86 3e e8 ad 84 be 96 79 e2 bc
       0.3784896 0.26356313 -0.2591393 -0.027645867
0000f0 d4 83 02 bd 9b d0 0c 3a 84 41 8d 3e d7 15 c2 bc
       -0.031864002 0.0005371661 0.27589047 -0.023692055
000100 99 80 c9 be 19 12 24 bd c8 ed da 3e 01 e3 93 3d
       -0.39355925 -0.04005632 0.42759538 0.07221032
000110 d9 c3 f8 3e 38 c6 2f bc 9e d9 9e 3e 14 d0 a2 3e
       0.4858692 -0.010728411 0.31025404 0.31799376
000120 66 11 39 bf 15 23 f6 3e 8c 9d 70 3e 84 8f ab 3e
       -0.7229217 0.4807364 0.234976 0.3350793
000130 60 3f e3 bd 17 09 0f 3e 01 99 48 be aa b4 e6 3d
       -0.11096072 0.13968311 -0.19589616 0.11264928
000140 64 0f 6a bf 49 a8 b6 3e ba 03 2a 3e 9a 47 00 be
       -0.91429734 0.35675266 0.16602984 -0.12527314
000150 1c 06 5c bf b6 59 db 3e f9 f5 63 bc e1 20 d4 3d
       -0.8594682 0.42841882 -0.013913625 0.10357834
000160 7d 6f ad bd 62 ee 5d 3d a9 a2 44 be f5 ed c5 be
       -0.0846853 0.054182418 -0.19202675 -0.3865811
000170 14 a3 6d bf c5 9b 63 bf a6 1d 68 be 37 90 3f bf
       -0.9282696 -0.8890956 -0.2266756 -0.7482943
000180 04 fa 6f bf a2 46 9d bf e8 a5 ce 3e 6f 03 71 3e
       -0.9374087 -1.228718 0.4036095 0.23536466
000190 ee e3 7d 3e 2c 31 b1 bd 35 fe 4b be 57 42 dc 3e
       0.2479398 -0.08651957 -0.19921191 0.43019363
0001a0 a5 99 28 bd a8 08 6a be 70 61 83 3e d2 8a 02 bd
       -0.04116215 -0.22854865 0.25660276 -0.03187067
0001b0 ef 9b 68 be dc df 4e 3e 6a 6c 0e 3f fc 20 f8 3e
       -0.22715734 0.20202583 0.55634177 0.48462665
0001c0 1c 3e ea bb ef 39 75 bf 8d 74 7e be aa a3 56 bd
       -0.0071485173 -0.95791525 -0.24849148 -0.052402176
0001d0 c9 1c bf bc 94 1e 0e 3f 9c 49 23 3c 1b 91 cd 3e
       -0.023329156 0.5551541 0.00996628 0.4014977
0001e0 f1 82 54 be 22 09 43 be 4c f3 d3 3e b3 93 d2 bc
       -0.20753075 -0.19046453 0.41396558 -0.025705194
0001f0 35 72 3e bc 61 91 29 3b ae b6 79 be 75 5b 7b 3d
       -0.011623909 0.0025874006 -0.24386093 0.061366517
000200 bd c9 1a bd de a6 29 bd 8a b7 0a be 38 cd f5 bd
       -0.03779005 -0.041418903 -0.13546577 -0.12002033
000210 92 18 2e be 9c 7b 20 bd 26 9c 93 bb 20 7b 08 be
       -0.1700156 -0.039180383 -0.0045046983 -0.13328218
000220 cb ad 86 3f 00 bf b7 bb 59 12 8a bd 84 97 66 3d
       1.0521787 -0.005607486 -0.06741781 0.05629684
000230 0e 72 80 3f 60 05 53 bc a1 a3 cc bc fa f2 e5 bd
       1.0034807 -0.0128796995 -0.024980368 -0.11227985
000240 3c ad 8c 3f 8f 80 d0 bd 30 28 00 be a9 99 b0 bb
       1.0990367 -0.101807706 -0.1251533 -0.0053894115
000250 24 aa 9e be bf d2 e5 bd c8 7d 64 bd 9c 6b 05 bd
       -0.30989182 -0.11221837 -0.055784017 -0.032573327
000260 6b 82 71 bc 57 a5 a0 bd 2f f8 c8 bc 6b ed da be
       -0.014740567 -0.07844036 -0.024532406 -0.4275926
000270 81 cb ac 3f 3c 64 70 3f bf 4f 93 bb fd bd 77 3e
       1.3499604 0.93902946 -0.0044955905 0.24193569
000280 ad ab 2e 3e 74 70 f4 3c 80 96 ef bc 57 94 f3 3e
       0.17057677 0.029838778 -0.029246569 0.47574112
000290 8a 36 84 3f d2 70 7b bd aa a8 52 bf 55 61 c3 3e
       1.0329144 -0.06138689 -0.8228861 0.38160196
0002a0 3a d7 d7 be 7a 08 38 bf ce c0 b2 3e 0e 84 9f bc
       -0.42156392 -0.71887934 0.34912723 -0.019472148
0002b0 32 8c 52 be 01 56 a0 bd 84 91 f9 3d c4 69 0a 3f
       -0.20561293 -0.07828904 0.12185958 0.54067636
0002c0 d7 79 ed be ad 2d 67 3d 78 19 82 bf e0 95 07 3e
       -0.4638202 0.056440044 -1.0164022 0.13240767
0002d0 e3 89 ef be b2 1d 43 3e 65 94 81 3e 30 00 f7 3d
       -0.46784887 0.19054297 0.2530853 0.12060583
0002e0 85 62 2a bf e4 e3 51 bf 81 9e 88 3e 45 89 99 be
       -0.6655658 -0.8198836 0.2668343 -0.2998754
0002f0 a6 c4 38 bf 9a ee fd be da 2d 3b bf 9a ed 5a be
       -0.7217506 -0.495961 -0.7311684 -0.213797
000300 c5 ba 02 3e e1 26 75 be b9 a3 bf 3d 4b 91 b4 bd
       0.1276656 -0.23940612 0.093573995 -0.08816775
000310 3c d8 2c be 67 ad 41 3f 4a 80 a7 be a5 ce 5b bf
       -0.16879362 0.75655216 -0.32715064 -0.8586219
000320 ef 86 07 be 98 35 5d be 6c 68 45 be 47 fd 09 be
       -0.13235067 -0.21602476 -0.19278115 -0.13475524
000330 76 c6 cd bd 6e 3a 61 bf b0 d8 83 bf d2 91 24 be
       -0.10047619 -0.8797978 -1.0300503 -0.16071251
000340 3a c9 07 be 59 cb ea 3d 9e 00 9f be c8 7f c3 3d
       -0.13260356 0.11464567 -0.31055158 0.09545857
000350 2f 21 cc bd 49 16 8a bf 6e dd 37 bd 43 a0 68 bf
       -0.09967267 -1.0788051 -0.044888906 -0.9086954
000360 9b cb 9d be 8c e4 ae be 1d c1 9d bf 3b e1 b5 bd
       -0.308194 -0.34158742 -1.2324558 -0.0888085
000370 73 10 54 be e7 c4 3e be 3b e5 b7 be 21 ef 01 be
       -0.207094 -0.186298 -0.35917076 -0.12688877
000380 7f dc 5c bd 4c a7 80 bd 96 0c 13 be 06 0e a3 bd
       -0.05392122 -0.06281909 -0.1436027 -0.07961659
000390 a5 3d 80 be 52 85 eb bd dd c2 02 bf 9b d6 09 be
       -0.2504703 -0.11500038 -0.5107859 -0.13460772
0003a0 a8 15 57 3f 5f f8 f9 be a5 37 93 bd 0c ba e2 3e
       0.8401742 -0.48822305 -0.07188348 0.44282568
0003b0 4d 8d eb 3d 40 e2 26 bd 27 96 4e bd 63 bc de bd
       0.1150156 -0.040743113 -0.050436165 -0.10875776
0003c0 48 13 36 3f f3 d7 b2 bd a6 5b 14 bf 83 9c 35 bc
       0.7112317 -0.08732595 -0.57952344 -0.011084679
0003d0 89 9a 35 3e ee 80 b0 bd e9 9c b0 bd 8a fd 1e bd
       0.17734732 -0.086183414 -0.08623678 -0.038816012
0003e0 01 e9 1f bf 70 29 f0 be c6 72 98 bc c2 58 bc 3f
       -0.6246491 -0.46906614 -0.018609416 1.4714587
0003f0 9d 45 6b 3f fc 63 23 3f 20 a8 07 bf d9 e2 7e 3b
       0.91903096 0.6382444 -0.52990913 0.0038892536

feature_layers.4.bias f4 [16]
000000 f6 13 dd bc 55 8a 25 be 15 9e d1 3c 72 c4 d5 bc
       -0.026987057 -0.1616605 0.025588075 -0.026094649
000010 f5 e3 35 be 83 26 d1 ba 51 92 34 bd 49 7c 8a bd
       -0.1776274 -0.0015956912 -0.04408485 -0.06761987
000020 ea 06 67 bd 80 9e 43 3e de 2f 4c 3d 37 88 93 bd
       -0.05640308 0.19103432 0.049850337 -0.07203715
000030 fd c3 65 be fd 52 98 bd 4e ea 53 3e 21 a0 88 3b
       -0.22438045 -0.07437704 0.20694849 0.0041694795

feature_layers.5.weight f4 [16]
000000 57 6f 10 40 f9 b6 1e 40 53 c1 c1 3f 91 71 de 3f
       2.2567956 2.4799178 1.5137123 1.7378408
000010 82 8f 06 40 6e 53 1d 40 de 70 cd 3f 79 5b 11 40
       2.102509 2.4582171 1.6050069 2.271208
000020 4c d8 ed 3f 3c ea e8 3f d4 ae d7 3f cb 71 1e 40
       1.8581634 1.8196483 1.6850228 2.4756954
000030 33 72 14 40 1c 85 2b 40 7a a7 d9 3f ea 90 4a 40
       2.3194702 2.6799994 1.7004235 3.1650949

feature_layers.5.bias f4 [16]
000000 41 97 0f bf 0d 9f 0f bf 95 e0 ef be c9 2a 86 be
       -0.5609017 -0.5610207 -0.4685103 -0.26204517
000010 0b 73 a6 3f 5f 51 ef be e7 ea c0 bf 93 36 70 3f
       1.3003858 -0.4674177 -1.5071687 0.93833274
000020 4c 0b f2 be 66 11 95 bf d1 24 26 bf 1e 95 a2 be
       -0.47274244 -1.1645935 -0.6489993 -0.31754392
000030 2f 26 8c 3f 6f d1 db 3c 23 da 42 bf ad 88 6b 3f
       1.0949153 0.026833264 -0.761141 0.92005426

feature_layers.5.running_mean f4 [16]
000000 14 cc 8d bf 75 fa 05 bf 2e 68 72 bf e5 dd 1a bf
       -1.1077905 -0.5233529 -0.94690216 -0.60494834
000010 28 24 37 3f 26 5d 7b bf 71 e3 21 c0 56 20 5a 3f
       0.71539545 -0.9818901 -2.529507 0.8520559
000020 e4 94 55 40 b4 56 ce bf af c6 5f c0 ca 12 92 bf
       3.3372126 -1.612021 -3.4965017 -1.1411984
000030 c0 44 a4 3f 82 17 4d bd 4a 6f 79 bf 59 83 3a 3e
       1.2833481 -0.050071247 -0.9743544 0.18214168

feature_layers.5.running_var f4 [16]
000000 b4 5f d7 40 97 7f f8 3f 31 83 44 40 20 32 a9 3f
       6.7304325 1.9413937 3.0705073 1.3218422
000010 f2 50 5b 40 08 be b1 40 2b 49 8a 40 a6 d0 29 40
       3.4268155 5.554447 4.3214316 2.65336
000020 e8 39 0b 40 55 48 56 40 fe 5b eb 40 ee 83 be 40
       2.1754093 3.3481648 7.3549795 5.9536047
000030 43 d4 b0 40 bc 4c 06 40 00 c2 12 40 2b 52 40 40
       5.525911 2.0984335 2.2930908 3.0050151

classifier.weight f4 [4, 16]
000000 fe 71 d4 3f 75 8a 58 be fd 3a ea 3f 48 57 bb bb
       1.6597288 -0.21146567 1.8299252 -0.005717192
000010 5e cf b6 c0 32 f2 81 3f e0 3e cc c0 42 0e ab c0
       -5.7128134 1.0152037 -6.382675 -5.3454905
000020 48 97 9e bf 72 a3 93 c0 ec c3 4b 3e 3a ea b9 3f
       -1.2389917 -4.613702 0.19898957 1.4524605
000030 e6 3c b3 c0 ee ca 7e bf 52 00 c8 3e 89 ee 85 c0
       -5.601184 -0.99528396 0.39062744 -4.185368
000040 70 ac 79 be 94 29 c3 3f 9c fc 11 c0 06 80 89 3f
       -0.24382186 1.5247064 -2.281043 1.0742195
000050 c9 0b 2a 3f 29 b9 44 c0 30 3e 37 c0 2f 41 b2 3e
       0.6642423 -3.0738013 -2.8631706 0.34815356
000060 dd ba 7f 3f 2e 5a a5 bf b6 62 20 c0 bb a1 fc bf
       0.99894506 -1.2918146 -2.5060248 -1.9736856
000070 29 16 22 3f 49 7c ab 3e 57 e6 f1 bf 11 8d b7 bd
       0.63315064 0.3349326 -1.8898419 -0.08962453
000080 f0 ac a6 3f 8a f3 f0 bf 16 dc aa be e1 2b 92 be
       1.3021526 -1.8824322 -0.33371037 -0.28549102
000090 af 75 25 3f 3f c9 0a 3f 2a 4a 3a 40 21 06 e3 3e
       0.64632696 0.5421333 2.9107766 0.44340613
0000a0 e9 a5 02 c0 01 b0 2d c0 c0 29 f8 3e 98 20 86 3f
       -2.0413764 -2.7138674 0.48469353 1.0478697
0000b0 68 0e 17 3f c0 d8 f4 bf 89 64 8b 3f 49 77 df bc
       0.5900636 -1.9128647 1.0890056 -0.02727856
0000c0 d1 b4 1d c0 a1 ed d5 3f 52 a3 35 bf 27 a6 d7 bf
       -2.4641612 1.6713144 -0.7095233 -1.6847581
0000d0 7f 5e 20 3f 82 b5 52 c0 14 62 9c 3e 29 19 8c 3d
       0.6264419 -3.2923284 0.30543578 0.068407364
0000e0 66 c7 5b 3f 52 f1 66 40 ce 18 d5 3f 9b 26 dc bf
       0.8585113 3.608479 1.6648195 -1.7199281
0000f0 9e 4e d9 3e c0 9c 14 3f 6f 55 ec 3f 1c ec 83 be
       0.42442793 0.5805168 1.8463572 -0.25766075

classifier.bias f4 [4]
000000 fe 54 32 3f 75 25 83 3f ec f9 00 bf b2 49 83 bf
       0.6966094 1.0245806 -0.5038135 -1.0256865
